assets/tflitebackup/model.tflite (tflite, 460084 bytes, 12 tensors)

sequential_1/conv2d_3/BiasAdd/ReadVariableOp/resource f4 [50]
-0.0060040294 0.0044686897 -0.0060036588 -0.0059959297 -0.005550902 0.0025138983 -0.0060038306 -0.0060027684
0.0012179842 -0.0059713023 0.0010988178 0.0043931757 0.0029261005 -0.00600433 -0.0060047186 -0.0060015474
-0.0060032452 0.00076624984 -0.0059850207 -0.006004327 -0.0060046758 0.0015737873 0.0025070524 0.0009259759
-0.0058828616 0.0021414752 -0.005940769 -0.0069490504 0.0015562411 -0.006004581 0.0040337592 -0.00627456
-0.0060041663 -0.0060031335 -0.004533615 -0.0057183444 -0.00598842 0.004516842 -0.0061837267 -0.0060041463
-0.006002289 0.00083021744 -0.0059760823 0.002250013 -0.0022668461 0.00044036802 -0.00590753 -0.0059977924
-0.005976004 0.0046190927
00000000: 73bd c4bb 166e 923b 57ba c4bb 8179 c4bb
00000010: 57e4 b5bb 37c0 243b c8bb c4bb dfb2 c4bb
00000020: c5a4 9f3a eaaa c3bb 3506 903a a1f4 8f3b
00000030: d2c3 3f3b f8bf c4bb 3bc3 c4bb a1a8 c4bb
00000040: dfb6 c4bb 28de 483a fe1d c4bb f2bf c4bb
00000050: dfc2 c4bb 8a47 ce3a 5c4d 243b 31bd 723a
00000060: 05c5 c0bb fe57 0c3b c8aa c2bb dcb4 e3bb
00000070: c9fa cb3a 14c2 c4bb a02d 843b d39a cdbb
00000080: 99be c4bb efb5 c4bb b88e 94bb f360 bbbb
00000090: 823a c4bb 0402 943b dca0 cabb 6ebe c4bb
000000a0: d9ae c4bb f3a2 593a 03d3 c3bb f474 133b
000000b0: 5e8f 14bb 32e1 e639 f493 c1bb 2189 c4bb
000000c0: 5bd2 c3bb c25b 973b

sequential_1/conv2d_4/BiasAdd/ReadVariableOp/resource f4 [40]
0.011246348 -0.006004802 -0.0043157917 0.016407816 -0.0035981191 -0.005947832 0.017027257 0.011984124
-0.0075467303 0.0142364 -0.005969351 -0.005998885 0.01057345 -0.005994435 0.005877958 -0.0044786227
-0.0060042576 0.012443683 0.0134737 0.011689564 0.016053917 0.013290036 -0.005955939 0.004333726
-0.0035187337 -0.004305694 -0.0038668963 -0.006003819 -0.0003661679 -0.008874622 -0.0059427037 0.012535045
-0.0060014683 -0.0060030413 0.01639918 -0.0006692315 -0.004522371 -0.00596908 0.015392966 0.016622841
00000000: 9a42 383c eec3 c4bb 7c6b 8dbb af69 863c
00000010: 6cce 6bbb 08e6 c2bb bf7c 8b3c 0f59 443c
00000020: 904a f7bb ca3f 693c 8c9a c3bb 4b92 c4bb
00000030: 433c 2d3c f76c c4bb e39b c03b 69c1 92bb
00000040: 5dbf c4bb 97e0 4b3c cbc0 5c3c 9685 3f3c
00000050: 8183 833c 73be 593c 0a2a c3bb ee01 8e3b
00000060: 8e9a 66bb c716 8dbb c16b 7dbb afbb c4bb
00000070: 39fa bfb9 dd66 11bc 03bb c2bb ca5f 4d3c
00000080: f7a7 c4bb 29b5 c4bb 9357 863c 5e6f 2fba
00000090: 6630 94bb 4698 c3bb c732 7c3c a02c 883c

sequential_1/conv2d_5/BiasAdd/ReadVariableOp/resource f4 [15]
0.025964297 0.02165958 -0.006003498 0.011099753 -0.0059896046 0.023363773 0.016819663 -0.0051158383
-0.00430568 0.0 0.019673223 0.01982835 -0.008456521 0.022180004 0.019411966
00000000: 14b3 d43c 6e6f b13c feb8 c4bb bddb 353c
00000010: 7244 c4bb 6265 bf3c 64c9 893c c3a2 a7bb
00000020: a916 8dbb 0000 0000 bd29 a13c 106f a23c
00000030: 388d 0abc d7b2 b53c d805 9f3c

sequential_1/dense_3/BiasAdd/ReadVariableOp/resource f4 [128]
0.0008609019 0.017990096 0.033318236 -0.009812909 -0.016252305 0.027685018 0.0036105188 -0.014930417
-0.0046722377 0.010749215 -0.012176433 -0.0001016288 -0.0020053866 -0.0059164087 -0.005999283 -0.0032672593
-0.009645878 0.031449296 -0.006382742 0.033973757 -0.0021699106 0.01940171 -0.0065588527 -0.00667964
0.0018869805 -0.01668439 -0.010786636 -0.008720966 0.02402841 -0.015302978 0.030945988 -0.012604526
-0.0119582005 0.024176564 -0.011934188 0.02599021 0.023022655 -0.011187116 -0.006441488 0.0033880575
0.026187245 -0.0017831632 -0.008958794 -0.007278483 -0.014136401 0.03474946 0.02478683 0.023350932
0.017560026 0.012385201 0.027194278 0.014653431 0.026998019 -0.010855783 0.027421502 0.031508364
0.020533912 0.022168286 -0.011077321 0.0053765657 0.01731541 -0.001075016 0.026394363 -0.0110701425
-0.013155505 0.0017646011 -0.0085712625 0.0236778 -0.0021155134 0.027529445 0.025843672 -0.006293717
0.019413255 -0.00816522 0.019810375 0.021495877 -0.0080037555 -0.00473809 0.02183684 -0.00761615
0.009007813 0.023761386 -0.0040995195 -0.009678919 0.0036647415 0.011515245 -0.015113471 -0.012431205
-0.007676333 0.021982828 -0.013362944 0.0069264136 -0.013812399 0.028170133 0.028593687 0.0077264914
0.03054922 -0.003796766 -0.00030965515 -0.0067404504 -0.008495452 -0.0027404074 -0.016815916 -0.013688864
-0.011878011 -0.004093252 0.0046533747 -0.0139114335 0.029122809 0.0023745392 0.02540408 0.030995324
0.026151242 -0.0028553337 -0.0032164592 -0.008865146 0.0014279934 -0.009895469 0.025694398 0.008551519
-0.012415574 0.0042752973 0.02188009 0.0085410355 -0.009204606 0.012917546 0.011692072 0.0040235273
00000000: 26ae 613a f75f 933c b478 083d 53c6 20bc
00000010: 8e23 85bc b1cb e23c 749e 6c3b b59e 74bc
00000020: 9219 99bb 7a1d 303c a97f 47bc 8c21 d5b8
00000030: ce6c 03bb 6fde c1bb a295 c4bb 841f 56bb
00000040: bf09 1ebc fad0 003d 5226 d1bb 1128 0b3d
00000050: 0f35 0ebb 56f0 9e3c a5eb d6bb e2e0 dabb
00000060: 8f54 f73a b4ad 88bc 6eba 30bc 62e2 0ebc
00000070: 3ad7 c43c 58b9 7abc 7182 fd3c 3783 4ebc
00000080: 54ec 43bc ee0d c63c 9d87 43bc 6ce9 d43c
00000090: 029a bc3c 2a4a 37bc 1e13 d3bb 2c0a 5e3b
000000a0: a286 d63c 07b9 e9ba e8c7 12bc 5780 eebb
000000b0: 5d9c 67bc 7355 0e3d c00d cb3c 744a bf3c
000000c0: 0bda 8f3c 4ceb 4a3c 89c6 de3c f214 703c
000000d0: f32a dd3c 74dc 31bc 0fa3 e03c ea0e 013d
000000e0: bc36 a83c 449a b53c a77d 35bc e72d b03b
000000f0: 0cd9 8d3c 8de7 8cba fe38 d83c 8b5f 35bc
00000100: 308a 57bc 304a e73a 7b6e 0cbc f2f7 c13c
00000110: 6da4 0abb 6e85 e13c 1cb6 d33c 863b cebb
00000120: 8c08 9f3c 6ac7 05bc 5e49 a23c 1f18 b03c
00000130: 2f22 03bc fb41 9bbb 2ce3 b23c e690 f9bb
00000140: 8295 133c 3da7 c23c 4355 86bb 5494 1ebc
00000150: 292c 703b 70aa 3c3c 7e9e 77bc 41ac 4bbc
00000160: c089 fbbb 5515 b43c 40f0 5abc f8f6 e23b
00000170: 664d 62bc 0dc5 e63c 4f3d ea3c 822e fd3b
00000180: 5c42 fa3c 2ad3 78bb 3659 a2b9 ffde dcbb
00000190: 8230 0bbc 6898 33bb 88c1 89bc 4247 60bc
000001a0: fd9b 42bc b020 86bb 567b 983b c8ec 63bc
000001b0: f592 ee3c 289e 1b3b 381c d03c e8e9 fd3c
000001c0: 213b d63c 8d20 3bbb 3bcb 52bb 1e3f 11bc
000001d0: 822b bb3a 9b20 22bc 0f7d d23c ac1b 0c3c
000001e0: b16a 4bbc cb17 8c3b e03d b33c b3ef 0b3c
000001f0: eace 16bc 1da4 533c 1b90 3f3c cbd7 833b

sequential_1/dense_4/BiasAdd/ReadVariableOp/resource f4 [50]
-0.003659586 0.009799129 -0.011982664 -0.017514383 0.009630357 -0.016015667 0.027276076 0.03068245
0.02261991 0.0 0.03097413 -0.010389558 0.03214883 0.032071725 -0.0059842844 -0.019479949
0.012748623 0.023941847 -0.016025128 0.02299419 -0.0035468799 -0.014304513 -0.022117432 0.0035489742
-0.024760203 0.030887278 -0.005327082 0.0 0.0 0.031471692 -0.001153884 0.0015274031
-0.015147907 -0.008835591 -0.0014213313 -0.0115799885 -0.011297685 -0.015249422 -0.01799549 -0.0071159774
-0.0016462347 0.015481357 0.022707673 0.01995695 -0.009433419 -0.007564607 -0.016626686 0.029128823
0.032534566 0.0
00000000: aad5 6fbb 878c 203c ef52 44bc 537a 8fbc
00000010: a5c8 1d3c 4a33 83bc 1472 df3c c359 fb3c
00000020: 644d b93c 0000 0000 75bd fd3c f738 2abc
00000030: 7eae 033d a45d 033d d117 c4bb 6a94 9fbc
00000040: 9adf 503c b121 c43c 2147 83bc 505e bc3c
00000050: c572 68bb 7a5d 6abc 9e2f b5bc e895 683b
00000060: e9d5 cabc 5107 fd3c cd8e aebb 0000 0000
00000070: 0000 0000 76e8 003d ec3d 97ba 2533 c83a
00000080: ed2e 78bc 28c3 10bc f74b baba feb9 3dbc
00000090: ed19 39bc b6d8 79bc 476b 93bc 252d e9bb
000000a0: 78c6 d7ba 85a5 7d3c 7105 ba3c c27c a33c
000000b0: a18e 1abc 86e0 f7bb b034 88bc 929f ee3c
000000c0: f742 053d 0000 0000

sequential_1/dense_5/BiasAdd/ReadVariableOp/resource f4 [3]
0.022731187 -0.03249997 0.0031256801
00000000: c136 ba3c b01e 05bd 36d8 4c3b

sequential_1/dense_3/MatMul f4 [128, 375]
0.093952574 0.057874043 0.041103087 -0.022128357 0.081146784 0.09320739 0.02734508 -0.055321977
0.0704131 -0.055522688 -0.031573594 0.070866115 0.06603333 0.049748987 0.098395444 -0.07654312
0.022156099 0.07004816 -0.07855418 0.044054024 -0.04598008 0.022537882 0.022794617 0.03964154
0.10470068 -0.06530069 -0.05875457 -0.106268376 0.010454423 -0.062258944 -0.028714098 -0.09822681
-0.07335958 -0.10670258 0.10147556 0.08815865 0.06370552 -0.050798535 0.0057579596 0.004968688
-0.02355063 0.0024376402 0.07963903 0.069467805 -0.06501284 -0.05218766 -0.061347816 0.042943917
-0.015603254 0.078227706 -0.062007055 -0.07492914 0.056479752 0.011061068 0.05673436 0.015296674
0.029941294 0.08796184 -0.110327564 0.08774936 -0.0950885 0.0076976474 0.0118475035 -0.027333166
-0.01087454 0.040103354 0.017680772 0.040358193 -0.0051486436 0.01042854 -0.013977457 -0.10635393
-0.004938364 -0.057628743 -0.0017417995 -0.07887212 0.0020488533 0.06491817 0.030310756 -0.049485076
-0.060601264 -0.09505603 -0.07126038 0.07182308 -0.06538838 -0.10340034 -0.060042508 0.042181846
-0.08545938 0.0108580645 -0.103387885 0.009291096 0.029223971 -0.022621464 0.046776347 0.046552975
0.027942926 -0.05608687 0.030093478 -0.085176304 -0.10800826 0.055165023 -0.060138207 0.053258564
-0.02043242 0.027011486 0.08975815 0.036355652 0.0035881535 -0.0054333135 0.09825395 -0.09045265
-0.08527245 0.05571864 -0.09457193 -0.1109599 0.06383457 -0.086521074 -0.018592816 0.09712572
-0.081097394 0.056049086 -0.025213107 -0.08701555 0.09066536 -0.015934443 0.023907412 0.07889289
-0.03382043 0.0137504935 0.095451 0.013861094 0.080498144 0.028283462 -0.06842657 0.011742
0.0010759739 -0.055637363 -0.03215816 0.016009621 0.08747526 -0.03906574 0.09875571 -0.033392377
-0.044655934 0.05221786 0.09506117 0.09436926 0.0137137845 0.05010998 -0.108602494 -0.048770547
-0.04730227 0.01916424 0.0368047 -0.058247842 -0.06374045 -0.07421052 -0.054005135 -0.07366942
-0.017479235 -0.101818785 0.05325645 0.08709326 -0.027830133 -0.09243953 0.09489248 -0.056923922
-0.04360243 0.10671764 -0.08911422 0.03700076 -0.04746706 -0.07556399 -0.0038409978 -0.024117758
-0.02343078 0.08957039 0.08146488 -0.0153379375 -0.063513584 -0.022617657 0.021252386 -0.116514996
-0.03817539 0.055366557 -0.018000744 0.076755695 0.036312144 -0.056795236 0.038891196 0.069501355
0.014016956 0.0060339626 -0.106707886 -0.09520317 0.07745824 0.08946734 0.013470904 -0.021670207
-0.109301545 -0.054068245 0.073785536 -0.10099257 0.04776574 -0.08853409 0.07591784 -0.026437463
0.07043996 0.05973215 0.013072086 0.095847294 0.019480832 -0.06992459 0.040233366 0.020122536
0.057532877 -0.09083964 0.10483423 -0.04490044 -0.076344006 0.0701891 0.05208024 0.080004096
-0.04759035 -0.079720296 0.01813816 0.036148034 -0.029591847 0.067433126 -0.010544841 -0.07329887
0.053342395 -0.08698631 0.0604937 0.10377524 -0.10043789 -0.09224395 0.032771774 -0.055301443
0.028341772 0.00397266 0.030981652 -0.061646372 0.0142022 0.018249303 0.018205978 -0.032035097
-0.036695443 0.09911858 0.098161675 -0.009845627 0.09127015 0.09601298 -0.046846684 -0.085569285
00000000: 356a c03d 550d 6d3d b65b 283d 8746 b5bc
00000010: 4930 a63d 84e3 be3d ca02 e03c 4c99 62bd
00000020: be34 903d c26b 63bd 5053 01bd 4122 913d
00000030: 7c3c 873d 98c5 4b3d 8d83 c93d a4c2 9cbd
00000040: b580 b53c 6975 8f3d 04e1 a0bd fe71 343d
00000050: 9c55 3cbd 5da1 b83c c7bb ba3c 2b5f 223d
00000060: 4f6d d63d 5ebc 85bd a2a8 70bd 3ca3 d9bd
00000070: 0749 2b3c 3c03 7fbd d439 ebbc 232b c9bd
00000080: 8c3d 96bd e286 dabd 6bd2 cf3d 868c b43d
00000090: 0a78 823d 2012 50bd 44ad bc3b 60d0 a23b
000000a0: 40ed c0bc d1c0 1f3b ca19 a33d 2345 8e3d
000000b0: 7425 85bd bac2 55bd d947 7bbd f6e5 2f3d
000000c0: caa4 7fbc d935 a03d 1cfb 7dbd 7374 99bd
000000d0: 5057 673d 7b39 353c 4a62 683d e79e 7a3c
000000e0: 7247 f53c 5625 b43d 6bf3 e1bd f0b5 b33d
000000f0: c2bd c2bd 8c3c fc3b 081c 423c cee9 dfbc
00000100: 202b 32bc 6a43 243d 44d7 903c a24e 253d
00000110: f4b5 a8bb 78dc 2a3c b401 65bc 17d0 d9bd
00000120: 00d2 a1bb 1e0c 6cbd 184d e4ba b587 a1bd
00000130: 0e46 063b d1f3 843d 434e f83c ddb0 4abd
00000140: 0839 78bd bcac c2bd f6f0 91bd fb17 933d
00000150: 58ea 85bd 8fc3 d3bd 22ef 75bd dfc6 2c3d
00000160: 5405 afbd 06e6 313c 07bd d3bd ae39 183c
00000170: 1c67 ef3c a650 b9bc 8e98 3f3d 55ae 3e3d
00000180: 90e8 e43c 59bb 65bd 9986 f63c ea70 aebd
00000190: 6f33 ddbd b8f4 613d 7b53 76bd a725 5a3d
000001a0: e461 a7bc 3147 dd3c 1fd3 b73d aae9 143d
000001b0: 3a27 6b3b f009 b2bb 5e39 c93d 3d3f b9bd
000001c0: 52a3 aebd 3b39 643d eeae c1bd f23e e3bd
000001d0: b3bb 823d f631 b1bd f64f 98bc d9e9 c63d
000001e0: 6416 a6bd ba93 653d b88b cebc 3535 b2bd
000001f0: c3ae b93d f388 82bc 7ad9 c33c 9892 a13d
00000200: 4b87 0abd c049 613c d07b c33d a419 633c
00000210: 36dc a43d b8b2 e73c 3b23 8cbd 8461 403c
00000220: b107 8d3a 01e4 63bd 46b8 03bd 9c26 833c
00000230: 3b26 b33d 6603 20bd 6f40 ca3d 72c6 08bd
00000240: 24e9 36bd 65e2 553d 6eaf c23d ac44 c13d
00000250: c8af 603c 1f40 4d3d fc6a debd a0c3 47bd
00000260: 06c0 41bd 53fe 9c3c 86c0 163d 4a95 6ebd
00000270: 5a8a 82bd affb 97bd 7d34 5dbd fedf 96bd
00000280: 9d30 8fbc 5e86 d0bd 6f23 5a3d f35d b23d
00000290: 05fc e3bc f050 bdbd fd56 c23d 0f29 69bd
000002a0: 7698 32bd c78e da3d 8481 b6bd 1c8e 173d
000002b0: d26c 42bd 4bc1 9abd 40b9 7bbb 9b92 c5bc
000002c0: e8f1 bfbc ae70 b73d 0fd7 a63d f94b 7bbc
000002d0: 6913 82bd aa48 b9bc 7c19 ae3c 6a9f eebd
000002e0: cc5d 1cbd 0bc8 623d 4c76 93bc 1732 9d3d
000002f0: 0bbc 143d 1fa2 68bd 604c 1f3d ba56 8e3d
00000300: 60a7 653c 8cb8 c53b aa89 dabd e1f9 c2bd
00000310: 6da2 9e3d a73a b73d 11b5 5c3c b885 b1bc
00000320: 7dd9 dfbd aa76 5dbd df1c 973d 31d5 cebd
00000330: 02a6 433d 5c51 b5bd d07a 9b3d 6193 d8bc
00000340: d342 903d b3a9 743d 4d2c 563c 964b c43d
00000350: 4496 9f3c a034 8fbd becb 243d 04d8 a43c
00000360: 98a7 6b3d 220a babd 54b3 d63d 86e9 37bd
00000370: 3f5a 9cbd 4ebf 8f3d 1752 553d 30d9 a33d
00000380: 19ee 42bd 6544 a3bd 7b96 943c f60f 143d
00000390: 9a6a f2bc 611a 8a3d 45c4 2cbc b81d 96bd
000003a0: 8e7d 5a3d e125 b2bd 3ec8 773d 1d88 d43d
000003b0: 61b2 cdbd 65ea bcbd b23b 063d c483 62bd
000003c0: 012d e83c 162d 823b 3ccd fd3c e880 7cbd
000003d0: 58b0 683c 907f 953c b424 953c 3c37 03bd
000003e0: f64d 16bd affe ca3d fd08 c93d 8d4f 21bc
000003f0: d8eb ba3d 74a2 c43d 4fe2 3fbd f33e afbd

sequential_1/dense_4/MatMul f4 [50, 128]
0.056946952 0.122173615 -0.122276284 -0.08914323 -0.09815577 0.06649411 0.15124057 -0.117772974
-0.13049737 0.13247788 -0.086917125 -0.07962447 0.027517676 -0.13873516 0.1519431 -0.08488464
-0.18610504 -0.16463692 -0.101883925 0.16100857 -0.037935838 -0.09430032 0.041958988 -0.079575464
0.082497284 0.12176655 0.08147526 0.102990195 -0.13874377 0.07204254 -0.17678855 0.06464274
-0.13175243 -0.064580776 0.10699895 -0.048596326 0.057814952 0.06928245 -0.014880459 -0.050749183
-0.027730608 0.10279062 -0.10559661 0.050789163 0.053568855 0.14584029 0.037911993 -0.15544045
-0.08032803 -0.13009393 -0.0014467775 -0.18136902 0.02018276 0.14774296 0.15618561 0.006781923
-0.15037975 -0.0663558 -0.06950079 0.09379866 0.08024946 0.077803954 0.12356586 0.09848039
0.093214005 -0.1294404 -0.0902879 -0.12962179 0.15270765 -0.11526873 0.06274969 0.094250634
-0.13721435 0.051150426 -0.003116641 -0.12848213 0.13084199 -0.12491417 -0.0624116 -0.16791423
0.1715866 -0.03614449 0.15869786 0.034265272 -0.17236182 0.08381007 0.11518573 -0.020699129
0.1766853 0.1538646 0.095539615 -0.14166522 0.11069079 -0.05077132 -0.041735712 0.16099325
-0.06597296 -0.11171771 -0.120016865 0.011192533 -0.14795595 0.15872827 -0.08087685 -0.15481089
-0.04085727 -0.17779423 -0.02396833 -0.12665272 -0.10445573 -0.11168564 -0.18178876 0.16303444
-0.1456758 -0.109453864 -0.15551059 0.039163154 0.16258319 -0.18816485 0.016705863 -0.11250019
-0.16757709 0.15625884 0.066674 0.0075842277 0.1417194 0.12166227 -0.03864639 0.15354484
-0.15778634 -0.09215391 -0.021183202 -0.09604404 0.1820955 0.04761439 -0.04251435 -0.1556483
0.15133132 -0.12204579 0.047422577 0.105469 -0.017878875 0.07347323 0.022851229 0.15166886
-0.087792486 -0.104937226 -0.09782871 -0.08283295 0.15845726 -0.16222182 0.050974727 -0.0718057
-0.15427263 -0.16467062 -0.14714046 0.08501567 0.053022537 -0.0855016 0.16581613 -0.14200068
0.1475 0.1301842 0.02165727 -0.1784992 0.04290849 -0.15549041 -0.07731773 -0.0062117022
0.15534852 0.16370393 -0.05522875 -0.16441563 0.10178787 -0.07526395 0.15500323 0.18194298
-0.12132082 -0.038571093 -0.07257425 0.10162876 -0.04837856 -0.051619332 0.1681661 -0.0038821145
-0.14055586 -0.10098911 0.042688414 0.026053064 0.17350103 -0.13392559 -0.050065577 0.05988449
-0.17192064 -0.18309608 0.087001525 -0.099344194 0.013035747 -0.1531506 -0.09059428 -0.17104083
-0.07521772 -0.029543096 -0.1605598 -0.14866592 -0.12660591 -0.06745217 -0.06667351 -0.12006623
0.037186187 -0.0012105095 0.022784606 -0.13138032 0.14697544 0.08699022 0.010048768 -0.17591503
0.14754507 0.09255313 0.026577521 0.03768162 0.17313524 -0.0011077811 -0.0858238 -0.07550614
0.160669 0.09489041 -0.10304048 -0.12991393 -0.12900127 0.120711684 0.05729376 0.018478394
-0.029720858 -0.15591297 0.103162736 0.13370788 0.072647974 -0.10432284 -0.027403362 -0.05547671
-0.17920971 0.05591923 0.16373627 -0.1813635 -0.1761075 -0.0709281 0.15551023 -0.11410837
-0.076705456 -0.0016192904 0.017001048 -0.17583133 -0.09116635 -0.10514467 -0.08290209 -0.011468712
00000000: 3541 693d 2936 fa3d fd6b fabd ba90 b6bd
00000010: e405 c9bd 102e 883d cfde 1a3e f532 f1bd
00000020: 1aa1 05be 48a8 073e 9b01 b2bd 2712 a3bd
00000030: c06c e13c 9710 0ebe f996 1b3e 00d8 adbd
00000040: 5292 3ebe 9596 28be 85a8 d0bd 6edf 243e
00000050: 9c62 1bbd 8720 c1bd 30dd 2b3d 76f8 a2bd
00000060: 56f4 a83d be60 f93d 80dc a63d 86ec d23d
00000070: d912 0ebe 0a8b 933d 0f08 35be 6a63 843d
00000080: 1cea 06be ed42 84bd 4422 db3d f10c 47bd
00000090: 5fcf 6c3d f5e3 8d3d 2bcd 73bc 60de 4fbd
000000a0: 4d2b e3bc e383 d23d 0943 d8bd 4c08 503d
000000b0: 046b 5b3d 2857 153e 9b49 1b3d c82b 1fbe
000000c0: 0683 a4bd 5837 05be cca1 bdba cdb8 39be
000000d0: 5156 a53c ee49 173e 1fef 1f3e e53a de3b
000000e0: 26fd 19be 8de5 87bd 6e56 8ebd 8319 c03d
000000f0: d459 a43d ae57 9f3d 1910 fd3d 16b0 c93d
00000100: fce6 be3d 068c 04be dde8 b8bd 93bb 04be
00000110: 655f 1c3e 0312 ecbd e982 803d 7a06 c13d
00000120: eb81 0cbe 1c83 513d 8f40 4cbb d290 03be
00000130: 71fb 053e 00d3 ffbd 4ea3 7fbd b5f1 2bbe
00000140: 66b4 2f3e 3f0c 14bd b181 223e be59 0c3d
00000150: 9e7f 30be 9da4 ab3d 7fe6 eb3d 3891 a9bc
00000160: feec 343e af8e 1d3e 46aa c33d b010 11be
00000170: dab1 e23d 96f5 4fbd 11f3 2abd 6adb 243e
00000180: d51c 87bd 41cc e4bd 67cb f5bd e360 373c
00000190: c481 17be aa89 223e c3a2 a5bd bf86 1ebe
000001a0: f459 27bd b10f 36be 3b59 c4bc 40b1 01be
000001b0: e3ec d5bd 71bb e4bd d526 3abe 80f2 263e
000001c0: 092c 15be 5929 e0bd 2b3e 1fbe 8b69 203d
000001d0: 357c 263e 49ae 40be bcda 883c 8066 e6bd
000001e0: 5499 2bbe 5102 203e 618c 883d 1d85 f83b
000001f0: e41e 113e 112a f93d ad4b 1ebd dc3a 1d3e
00000200: be92 21be 30bb bcbd 6588 adbc bdb2 c4bd
00000210: 3e77 3a3e 4e07 433d 8723 2ebd 4562 1fbe
00000220: 99f6 1a3e 25f3 f9bd 2d3e 423d 2200 d83d
00000230: b876 92bc 2279 963d 8032 bb3c 154f 1b3e
00000240: 8ccc b3bd 54e9 d6bd 6b5a c8bd 52a4 a9bd
00000250: 9f42 223e 7a1d 26be e0ca 503d de0e 93bd
00000260: a5f9 1dbe 6a9f 28be fdab 16be b21c ae3d
00000270: 292e 593d 761b afbd b4cb 293e a068 11be
00000280: 3d0a 173e 024f 053e 966a b13c 7fc8 36be
00000290: d0c0 2f3d e138 1fbe c258 9ebd 898b cbbb
000002a0: af13 1f3e 01a2 273e 8b37 62bd 925c 28be
000002b0: 2976 d03d fc23 9abd 2bb9 1e3e 434f 3a3e
000002c0: 0d77 f8bd b9fc 1dbd cfa1 94bd bd22 d03d
000002d0: 9928 46bd cb6e 53bd bc33 2c3e 136b 7ebb
000002e0: e0ed 0fbe 61d3 cebd 0cda 2e3d 3c6d d53c
000002f0: 41aa 313e ca23 09be 9011 4dbd 7049 753d
00000300: f70b 30be 8a7d 3bbe db2d b23d f874 cbbd
00000310: e393 553c 83d3 1cbe 7e89 b9bd 5425 2fbe
00000320: bf0b 9abd 5d04 f2bc ca69 24be e13b 18be
00000330: fba4 01be 5d24 8abd 1f8c 88bd 49e5 f5bd
00000340: 8b50 183d f5a9 9eba c8a6 ba3c 9088 06be
00000350: bb80 163e ee27 b23d 96a3 243c 1223 34be
00000360: 0e16 173e 7f8c bd3d 1ab9 d93c 0b58 1a3d
00000370: 5d4a 313e f732 91ba 63c4 afbd f7a2 9abd
00000380: 6a86 243e e755 c23d e306 d3bd 2808 05be
00000390: e918 04be b037 f73d ddac 6a3d 0060 973c
000003a0: 2879 f3bc a6a7 1fbe fc46 d33d b8ea 083e
000003b0: 76c8 943d 37a7 d5bd 047d e0bc 8c3b 63bd
000003c0: c082 37be 900b 653d 7baa 273e 5ab7 39be
000003d0: 8655 34be c042 91bd 133e 1f3e a6b1 e9bd
000003e0: c017 9dbd 5f3e d4ba c845 8b3c 210d 34be
000003f0: 6cb5 babd 1756 d7bd 92c8 a9bd 44e7 3bbc

sequential_1/dense_5/MatMul f4 [3, 50]
0.21150292 0.2657251 -0.05163888 -0.24937926 0.11920654 0.05438191 -0.09397827 0.14768554
0.0632178 -0.042024463 0.2434774 -0.2781519 0.24699238 -0.22265336 0.03473431 -0.12055127
-0.12871552 0.22117399 -0.2935222 0.050317813 -0.27707592 0.14669172 0.001971596 -0.055832036
-0.18843365 0.20806153 -0.271082 0.005013287 -0.106724784 -0.15144946 0.1038438 -0.19518341
-0.05046222 -0.23510051 0.05475382 -0.21802193 -0.21896647 -0.055869415 -0.08045753 -0.23359819
0.13519053 0.25593024 0.2597075 0.11357657 0.24857551 -0.07133434 -0.19894606 -0.012205638
0.060650848 -0.11157578 0.30743644 0.005582392 0.3078919 -0.23315494 -0.14547631 0.06911907
-0.19903056 -0.15436569 -0.34312877 -0.29498103 -0.029846199 0.027455656 -0.14244387 -0.34157795
-0.0115477145 -0.095068865 -0.2424411 -0.17992887 0.074315175 -0.2208066 -0.2829522 0.2713995
0.039081503 -0.090175875 -0.12874787 -0.23928252 -0.24164653 0.3210872 -0.22235788 -0.34415272
-0.060544554 -0.21283749 0.20805773 0.05654744 0.037940964 0.15006423 0.20281634 0.09233693
0.17548646 0.23131594 0.11262487 0.046293538 -0.11920013 -0.23071922 0.23618524 0.310601
-0.08737625 -0.17361607 -0.17729871 0.062153757 -0.30062792 0.16339393 -0.12242336 -0.28758162
-0.19234282 -0.19753996 -0.012707803 0.05339218 -0.3193585 0.00978297 0.17025475 -0.28324965
0.17776372 -0.1692435 -0.09092763 -0.25987354 0.29590786 -0.11319436 -0.110372916 -0.19036382
-0.061722632 0.10315027 -0.031722 -0.18375166 -0.12270835 0.10178353 -0.060847916 0.12883076
-0.015672475 -0.030806642 -0.1708293 -0.046545997 -0.006706359 -0.19500032 -0.29963562 0.07003347
0.06577962 0.040846523 -0.18938658 0.2379508 -0.19066277 -0.1758464 -0.14101022 -0.2915561
0.22802609 -0.15996952 -0.2468917 0.1531028 -0.029737856 0.24847159
00000000: 3994 583e 1f0d 883e 4a83 53bd 475d 7fbe
00000010: 8f22 f43d 91bf 5e3d ae77 c0bd e13a 173e
00000020: 5578 813d d821 2cbd 2452 793e ed69 8ebe
00000030: 92eb 7c3e 3eff 63be 9045 0e3d 96e3 f6bd
00000040: 00ce 03be 6f7b 623e 8b48 96be 0d1a 4e3d
00000050: e5dc 8dbe 5b36 163e e435 013b 22b0 64bd
00000060: c0f4 40be 150e 553e 43cb 8abe 8046 a43b
00000070: 8692 dabd 9115 1bbe 0fac d43d 29de 47be
00000080: 79b1 4ebd 30be 70be 8b45 603d 2441 5fbe
00000090: bf38 60be 54d7 64bd ebc6 a4bd 5d34 6fbe
000000a0: 636f 0a3e 4a09 833e 62f8 843e d59a e83d
000000b0: 948a 7e3e bd17 92bd 84b8 4bbe 28fa 47bc
000000c0: 066d 783d d881 e4bd 4f68 9d3e 80ec b63b
000000d0: 02a4 9d3e 2bc0 6ebe bef7 14be 4d8e 8d3d
000000e0: abce 4bbe 0a12 1ebe 93ae afbe c107 97be
000000f0: 0480 f4bc afea e03c cedc 11be 4ee3 aebe
00000100: a032 3dbc 77b3 c2bd 7b42 78be 463f 38be
00000110: 8e32 983d 201b 62be 1cdf 90be e0f4 8a3e
00000120: ed13 203d 21ae b8bd 7bd6 03be 7a06 75be
00000130: 3072 77be 8b65 a43e c9b1 63be c934 b0be
00000140: 91fd 77bd 12f2 59be 160d 553e 4a9e 673d
00000150: fc67 1b3d 70aa 193e 16af 4f3e 251b bd3d
00000160: b9b2 333e 16de 6c3e dea7 e63d 4b9e 3d3d
00000170: 331f f4bd a941 6cbe 8bda 713e 1807 9f3e
00000180: 52f2 b2bd 69c8 31be cb8d 35be f094 7e3d
00000190: e7eb 99be bd50 273e 19b9 fabd e63d 93be
000001a0: 84f5 44be ea47 4abe 6434 50bc c2b1 5a3d
000001b0: f582 a3be c048 203c 4357 2e3e 1906 91be
000001c0: b107 363e 2b4e 2dbe 4438 babd 250e 85be
000001d0: 3c81 973e 72d2 e7bd 320b e2bd bcee 42be
000001e0: dfd0 7cbd 7340 d33d eeee 01bd 6529 3cbe
000001f0: 844e fbbd e273 d03d aa3b 79bd 36ec 033e
00000200: 9063 80bc 365e fcbc e0ed 2ebe 04a7 3ebd
00000210: 04c1 dbbb 2aae 47be d769 99be b56d 8f3d
00000220: 77b7 863d af4e 273d 8eee 41be 60a9 733e
00000230: 1a3d 43be 1411 34be fc64 10be d746 95be
00000240: ac7f 693e 0dcf 23be 2ed1 7cbe fbc6 1c3e
00000250: ce9c f3bc 566f 7e3e

sequential_1/conv2d_3/Conv2D f4 [50, 5, 5, 3]
-0.05590955 -0.06536917 0.051215723 -0.02061116 0.0061709955 -0.007263776 0.034678385 0.023086771
0.060474694 0.053395167 0.053125665 0.0089601725 -0.047711194 0.049639225 0.019012138 0.034247175
-0.011530966 -0.027434018 0.0497469 -0.023649748 0.0536957 0.020911068 0.01417242 0.04291804
-0.0155163 0.015861496 -0.02936706 0.027340487 0.007888347 0.047317475 -0.039641473 -0.06470646
-0.02447318 -0.06272651 -0.05963411 -0.011271521 0.027887799 -0.009917986 -0.06489584 -0.049831226
-0.059600018 0.02175901 -0.0025656447 -0.060390208 -0.017510321 -0.05584899 -0.023814052 -0.048916824
0.03948994 0.003986135 -0.013052482 0.010343708 0.05331532 -0.04783523 0.066051185 0.01178807
-0.005194187 -0.06625771 0.064932644 0.048465528 0.052127548 0.022815935 0.021894313 -0.011086665
0.023957789 -0.024800122 0.02613131 0.066851616 -0.04142362 -0.021425866 -0.0544637 -0.028177537
0.0035981461 0.020440243 -0.018394675 -0.04868393 -0.06218352 -0.061655007 0.028390773 0.039129496
-0.025932543 -0.0023787022 0.015643604 -0.04966689 0.04262378 0.005724035 0.043751486 -0.008458734
0.03888966 0.060472727 -0.041360214 -0.009839565 -0.055821635 0.060716107 -0.03317339 0.06215602
0.05475013 0.023325697 -0.054528326 -0.0065442584 0.006354958 0.026699133 0.0027202964 -0.050775096
-0.006456867 -0.031439535 -0.016191214 -0.018264253 0.051280193 0.039828047 0.06592773 -0.061866175
-0.0262548 -0.0014072508 0.033351734 0.025908507 0.0073509887 0.043966293 0.04166288 -0.05196608
-0.018494353 -0.026679251 0.044208072 -0.047046 0.015236065 -0.026077274 -0.035770774 0.03364829
-0.049161553 0.043772593 0.035949662 0.045614205 0.05780779 0.064615235 -0.00072331727 0.0040737987
-0.061472043 -0.048805557 -0.042637028 0.061253548 0.023292258 -0.031705108 0.027172022 0.05954078
-0.054971136 -0.028597806 0.04478339 0.030202538 0.039596148 -0.026368197 -0.045089908 0.0055411533
0.05680363 0.051543854 -0.009042986 -0.04860811 0.05380279 -0.021902654 -0.051209547 -0.06700652
0.0011722445 -0.056764033 -0.053773176 -0.012464125 0.063820735 0.029958405 -0.046052005 -0.017587077
0.013975881 -0.050516874 -0.030641932 0.0014644787 -0.065809615 -0.0642696 0.045460775 0.024453253
-0.01567863 0.031104043 -0.042248305 0.06464553 0.06230794 -0.028155219 -0.052737787 -0.0211249
-0.011507448 -0.01910843 7.133186e-05 0.012882225 0.04711861 0.027783081 -0.018110633 -0.028899334
-0.058983356 0.039039284 -0.035391547 0.06159027 0.03943956 0.013091855 -0.013988044 -0.050474852
-0.05247194 0.024493858 -0.02534224 0.0528439 0.06352477 0.051925667 0.022998944 0.013654977
0.0095930025 0.04683218 -0.059246123 0.021538347 0.006367475 -0.0032010004 -0.0075893216 -0.06413174
0.02810099 -0.06099525 0.03511872 0.03635756 0.020600893 0.013479777 0.056955993 0.03692978
-0.04113759 -0.055170093 0.059595183 -0.022020046 -0.007993914 -0.064261325 0.01240845 -0.019265193
-0.059875235 0.0112455115 -0.0015181452 0.0066234693 0.040876895 0.016449876 0.0396605 0.030910313
0.010547094 0.0066766813 0.03566909 0.06545155 0.004594967 -0.044240948 -0.039924342 -0.011691339
-0.04457421 0.015505724 0.005943127 0.034458295 -0.056181192 -0.054102905 0.0014643818 0.00055284053
00000000: 6a01 65bd 45e0 85bd 94c7 513d bcd8 a8bc
00000010: 1036 ca3b f804 eebb ec0a 0e3d 7820 bd3c
00000020: 50b4 773d e4b4 5a3d 4c9a 593d b0cd 123c
00000030: d06c 43bd 8052 4b3d 58bf 9b3c c446 0c3d
00000040: 60ec 3cbc 4ebd e0bc 68c3 4b3d 1ebd c1bc
00000050: 06f0 5b3d b04d ab3c 7033 683c d4ca 2f3d
00000060: 1438 7ebc f8ef 813c 3093 f0bc 28f9 df3c
00000070: 203e 013c f8cf 413d 195f 22bd d284 84bd
00000080: fa7b c8bc c276 80bd e642 74bd 30ac 38bc
00000090: f474 e43c 0c7f 22bc 1ce8 84bd d41b 4cbd
000000a0: 261f 74bd f43f b23c 6024 28bb b95b 77bd
000000b0: ce71 8fbc e9c1 64bd b015 c3bc 025d 48bd
000000c0: 34c0 213d 209e 823b 14da 55bc a878 293c
000000d0: 2a61 5a3d e0ee 43bd d845 873d c022 413c
000000e0: 0034 aabb 1fb2 87bd 68fb 843d ca83 463d
000000f0: b283 553d 7ce8 ba3c b45b b33c d8a4 35bc
00000100: 2043 c43c a029 cbbc 5411 d63c 80e9 883d
00000110: d0ab 29bd 4c85 afbc 5415 5fbd 94d4 e6bc
00000120: e0ce 6b3b 4c72 a73c 6eb0 96bc cd68 47bd
00000130: 26b4 7ebd f689 7cbd c493 e83c 4046 203d
00000140: 7c70 d4bc 00e4 1bbb 0427 803c 826f 4bbd
00000150: 4696 2e3d b090 bb3b c234 333d 8096 0abc
00000160: c44a 1f3d 40b2 773d 5469 29bd 2036 21bc
00000170: 3aa5 64bd 74b1 783d d2e0 07bd 5097 7e3d
00000180: ac41 603d 8815 bf3c 1859 5fbd 3871 d6bb
00000190: 403d d03b 24b8 da3c 0047 323b 8cf9 4fbd
000001a0: 2094 d3bb bec6 00bd 70a3 84bc ea9e 95bc
000001b0: 2e0b 523d bc22 233d 1e05 873d 6367 7dbd
000001c0: 4e14 d7bc 8073 b8ba d49b 083d 143e d43c
000001d0: 90e0 f03b 0016 343d b2a6 2a3d 62da 54bd
000001e0: 7881 97bc 728e dabc 8613 353d 4eb3 40bd
000001f0: b0a0 793c 02a0 d5bc 6084 12bd cad2 093d
00000200: a05d 49bd e44a 333d f43f 133d f6d5 3a3d
00000210: dcc7 6c3d fe54 843d 009d 3dba 807d 853b
00000220: 1cca 7bbd 56e8 47bd 2aa4 2ebd 00e5 7a3d
00000230: 68cf be3c 37dd 01bd dc97 de3c 08e1 733d
00000240: 6a29 61bd f245 eabc ca6e 373d 506b f73c
00000250: 922f 223d 1e02 d8bc 32b0 38bd 9092 b53b
00000260: ecaa 683d a61f 533d 0829 14bc 4c19 47bd
00000270: 5060 5c3d 326d b3bc 1ac1 51bd b73a 89bd
00000280: 00a6 993a 6781 68bd 4341 5cbd 5436 4cbc
00000290: 72b4 823d 546b f53c 07a1 3cbd c612 90bc
000002a0: 18fb 643c c8ea 4ebd ca04 fbbc c0f3 bf3a
000002b0: 31c7 86bd c89f 83bd 1435 3a3d 3052 c83c
000002c0: 7870 80bc e8cd fe3c 8f0c 2dbd e064 843d
000002d0: 9c36 7f3d c6a5 e6bc 9403 58bd 200e adbc
000002e0: bc89 3cbc 4889 9cbc 0098 9538 f80f 533c
000002f0: 72ff 403d 5899 e33c c05c 94bc 4cbe ecbc
00000300: 8898 71bd a8e7 1f3d baf6 10bd 1446 7c3d
00000310: 608b 213d 387f 563c 1c2e 65bc b8be 4ebd
00000320: d1ec 56bd 58a7 c83c 889a cfbc d872 583d
00000330: 4619 823d 02b0 543d 4868 bc3c 20b9 5f3c
00000340: f82b 1d3c 1ad3 3f3d 10ac 72bd 3071 b03c
00000350: 40a6 d03b e0c7 51bb d8af f8bb 8057 83bd
00000360: 0c34 e63c 28d6 79bd a6d8 0f3d aaeb 143d
00000370: 34c3 a83c 48da 5c3c b04a 693d ae43 173d
00000380: e47f 28bd 09fa 61bd 141a 743d 6263 b4bc
00000390: e8f8 02bc 719b 83bd d04c 4b3c 0ad2 9dbc
000003a0: bc3f 75bd 183f 383c 80fc c6ba b009 d93b
000003b0: 886e 273d e4c1 863c 0c73 223d a037 fd3c
000003c0: b8cd 2c3c 10c8 da3b c019 123d 760b 863d
000003d0: 6091 963b ff35 35bd b587 23bd 088d 3fbc
000003e0: 7293 36bd b80b 7e3c 90be c23b 2424 0d3d
000003f0: 401e 66bd 029b 5dbd 80f0 bf3a 80ec 103a

sequential_1/conv2d_4/Conv2D f4 [40, 5, 5, 50]
-0.018529247 0.04341302 0.0054726936 0.012323823 -0.020653313 0.0350877 -0.0065675266 -0.01712659
0.020412466 0.036192443 0.03684557 -0.03617275 0.015504154 0.030557085 0.036085095 0.014574718
0.0499936 -0.039570928 0.04803354 -0.008856799 0.0100146085 -0.046518397 -0.050958887 0.03891292
-0.039181013 -0.041316185 -0.01348241 -0.014385778 0.019032272 -0.00888557 0.0013348758 0.024023337
0.042819124 0.0015876181 0.049827453 0.004663445 0.03499834 -0.0219785 0.008577207 -0.044369362
-0.04837448 -0.050543975 0.001129318 -0.05234733 0.038117032 -0.013880598 3.5580248e-05 -0.033851482
0.0055864044 0.017067038 -0.020524228 -0.041365482 -0.04415083 0.037914302 -0.000112507245 -0.041259702
0.0117063485 0.03886998 0.012980602 -0.0041568354 0.016664514 0.01525184 0.039326295 -0.024409477
0.022378419 -0.029827295 0.037419837 0.03952398 -0.012020264 0.005794514 0.025163982 0.02256534
-0.018641686 -0.037297465 -0.027934775 -0.039440487 -0.04144272 -0.012675129 -0.0016740962 0.04097121
0.04508698 0.027165664 0.048881706 -0.0009876601 -0.03445989 0.03648379 0.02904028 -0.016568532
-0.023493625 0.010972459 0.013190422 -0.01575916 -0.01669043 -0.00877035 0.022366948 0.022284966
-0.042801507 -0.042876918 -0.01804027 0.030517723 0.049383197 -0.033399697 -0.02665397 0.049232755
-0.0048735123 0.033441495 0.026164573 -0.04324624 -0.017366776 -0.014923934 0.004541029 -0.016355028
-0.02009615 0.051361416 0.022180524 -0.03295913 0.011546943 0.003634065 0.040445928 0.027190384
0.009578865 -0.04163822 0.024567463 -0.022755373 -0.008328237 0.012914835 0.0060699806 -0.016681299
0.04362857 0.009335682 -0.046374235 0.02085819 0.029836427 0.029496957 0.031417694 0.022293184
-0.045204 0.0008145708 -0.010048419 0.034092132 -0.007050313 0.038215462 -0.024899194 0.023260172
0.040572677 -0.034712005 -0.021289092 -0.016471699 0.035279874 0.02829733 -0.02310603 0.01856531
-0.011478454 0.033543278 -0.047617678 -0.032851327 0.002820257 0.024229523 -0.0269877 -0.03180489
-0.004343814 -0.0292935 0.0015426115 -0.04744401 -0.014079105 -0.033571634 -0.013970945 0.011491242
-0.0015178956 -0.047025148 -0.045954123 -0.029752461 -0.04253681 0.033462066 -0.010025222 -0.04333419
0.028181482 -0.0064873844 -0.043296672 0.02823681 0.015048463 0.006837038 0.04049513 0.0060284995
0.021674033 -0.023059417 0.04828762 -0.017716996 0.052773453 -0.016192894 -0.0007051751 0.036098544
-0.025405705 0.006942983 -0.02443215 0.017562043 -0.027637098 -0.024380986 -0.0010370538 -0.02750029
-0.0003293194 -0.026803484 0.006071225 0.044550855 0.019860901 0.018633137 -0.012500167 0.020576295
-0.019359676 0.018825222 0.025819987 0.029351614 -0.011842424 0.016723294 -0.023531454 0.0052067935
0.037433308 0.022056425 -0.011293836 -0.032678727 -0.039450288 -0.027695058 0.024256377 0.009452319
-0.002100408 -0.013399007 -0.008560613 0.0066268994 -0.00053277635 -0.038758628 -0.04477464 -0.02439165
-0.02394064 0.035862725 -0.02332326 -0.0416248 0.046377447 0.012045514 -0.023872834 0.008963075
0.018394936 -0.035448823 0.027864981 -0.006399322 0.052600708 -0.02268124 -0.04188358 0.030430716
-0.041323196 0.03574 -0.013012368 0.0056804176 0.032719944 -0.020373013 -0.027343504 -0.031095171
00000000: a6ca 97bc dad1 313d 4854 b33b dce9 493c
00000010: 2331 a9bc 1fb8 0f3d 6834 d7bb 104d 8cbc
00000020: 0b38 a73c 873e 143d 61eb 163d e129 14bd
00000030: 2305 7e3c da52 fa3c f7cd 133d ccca 6e3c
00000040: 17c6 4c3d 2015 22bd d1be 443d 1c1c 11bc
00000050: 5014 243c 138a 3ebd 44ba 50bd 2763 1f3d
00000060: 457c 20bd 293b 29bd 54e5 5cbc 54b2 6bbc
00000070: 91e9 9b3c c894 11bc 00f7 ae3a 97cc c43c
00000080: 1b63 2f3d a017 d03a df17 4c3d d0cf 983b
00000090: 6b5a 0f3d 410c b4bc 6a87 0c3c a6bc 35bd
000000a0: 5224 46bd 3307 4fbd a005 943a 276a 56bd
000000b0: 9b20 1c3d 736b 63bc 003c 1538 daa7 0abd
000000c0: 280e b73b 2cd0 8b3c 6d22 a8bc da6e 29bd
000000d0: 80d7 34bd 074c 1b3d def1 ebb8 efff 28bd
000000e0: fccb 3f3c 2136 1f3d 97ac 543c 1036 88bb
000000f0: 0584 883c dbe2 793c 9c14 213d 62f6 c7bc
00000100: f252 b73c 5f58 f4bc 8b45 193d e6e3 213d
00000110: a4f0 44bc e8df bd3b b224 ce3c f3da b83c
00000120: 73b6 98bc 3ac5 18bd 78d7 e4bc 598c 21bd
00000130: d7bf 29bd 58ab 4fbc 596d dbba 6dd1 273d
00000140: 20ad 383d 878a de3c 2f38 483d 6074 81ba
00000150: d025 0dbd 0770 153d e2e5 ed3c bbba 87bc
00000160: b475 c0bc d4c5 333c a41c 583c 5b19 81bc
00000170: 5eba 88bc 84b1 0fbc e43a b73c f68e b63c
00000180: a250 2fbd b59f 2fbd 30c9 93bc 4e00 fa3c
00000190: 0946 4a3d 1fce 08bd 6d59 dabc 49a8 493d
000001a0: fcb1 9fbb f3f9 083d 1657 d63c f822 31bd
000001b0: c544 8ebc 8483 74bc eacc 943b fbfa 85bc
000001c0: aea0 a4bc 5960 523d eeb3 b53c 2700 07bd
000001d0: 642f 3d3c 7e29 6e3b a1aa 253d 5ebe de3c
000001e0: acf0 1c3c d78c 2abd b441 c93c 7a69 babc
000001f0: 2873 08bc be98 533c b0e6 c63b 38a7 88bc
00000200: dfb3 323d b0f4 183c e9f2 3dbd cbde aa3c
00000210: 866b f43c 9aa3 f13c d7af 003d 32a0 b63c
00000220: d427 39bd ec88 553a 20a2 24bc 31a4 0b3d
00000230: 5006 e7bb d187 1c3d 65f9 cbbc 1e8c be3c
00000240: 892f 263d 2d2e 0ebd 7666 aebc a8ef 86bc
00000250: a181 103d cdcf e73c db48 bdbc 4716 983c
00000260: 2010 3cbc ad64 093d c10a 43bd 1d8f 06bd
00000270: 10d4 383b fe7c c63c 4f15 ddbc d845 02bd
00000280: 8e56 8ebb ecf8 efbc 7431 ca3a a654 42bd
00000290: 0cac 66bc 6982 09bd 64e6 64bc c345 3c3c
000002a0: 20f4 c6ba 719d 40bd 643a 3cbd 6fbb f3bc
000002b0: 143b 2ebd 850f 093d d440 24bc 317f 31bd
000002c0: dadc e63c 2094 d4bb da57 31bd e250 e73c
000002d0: d48d 763c 3b09 e03b 39de 253d b88a c53b
000002e0: be8d b13c 1ae7 bcbc 3dc9 453d 3c23 91bc
000002f0: fa28 583d f6a6 84bc 80db 38ba 11dc 133d
00000300: a01f d0bc f681 e33b ef25 c8bc 46de 8f3c
00000310: 3267 e2bc a2ba c7bc c0ed 87ba 4a48 e1bc
00000320: 80a8 acb9 fb92 dbbc 20f1 c63b f57a 363d
00000330: 54b3 a23c 85a4 983c 80cd 4cbc 9e8f a83c
00000340: 2f98 9ebc 5a37 9a3c 7084 d33c cc72 f03c
00000350: ba06 42bc 4aff 883c 09c5 c0bc c09d aa3b
00000360: ab53 193d adaf b43c c809 39bc 21da 05bd
00000370: a096 21bd bfe0 e2bc 4fb5 c63c e6dd 1a3c
00000380: 00a7 09bb 8287 5bbc d041 0cbc 7626 d93b
00000390: 04aa 0bba 5ec1 1ebd 9d65 37bd ffd0 c7bc
000003a0: 291f c4bc cbe4 123d 6c10 bfbc c47e 2abd
000003b0: 47f6 3d3d 8c5a 453c f690 c3bc dcd9 123c
000003c0: fab0 963c c932 11bd 1a45 e43c 67b1 d1bb
000003d0: d773 573d 02ce b9bc 1e8e 2bbd d649 f93c
000003e0: 8342 29bd 1b64 123d d431 55bc cc22 ba3b
000003f0: 5905 063d 4ee5 a6bc 7cff dfbc 4dbb febc

sequential_1/conv2d_5/Conv2D f4 [15, 3, 3, 40]
0.108723186 -0.07252416 -0.100879595 0.08619478 -0.067130394 -0.10956502 -0.032574028 -0.07909599
-0.006417108 0.06863779 -0.07034321 -0.048341013 0.103130236 0.006365441 0.055265658 -0.00077421253
-0.03556622 0.0056359754 0.109991975 0.05815289 0.10642105 0.046804663 -0.060738325 -0.07663378
0.09108823 0.026453156 0.08889888 -0.019008279 0.0944572 0.010377181 -0.009226665 0.10659585
-0.029794455 0.09041004 -0.0011608702 -0.052025076 0.10906313 0.05184117 -0.04347894 0.025357403
0.04080375 -0.08402611 0.03390707 0.033231914 -0.013935624 0.04630816 0.11177972 0.09817621
-0.03730869 -0.0072145085 -0.0060028657 0.0010323972 0.057269294 0.09658162 0.037467636 -0.06725182
-0.04222221 -0.07410275 -0.0011521798 0.038003214 0.048847105 -0.05194679 -0.0938324 0.041477006
-0.035483304 0.054667365 -0.036423434 -0.05172383 0.029841492 -0.027227595 -0.03767947 -0.0457319
0.035404503 0.027371645 0.058061063 0.09045176 0.051954966 0.0758702 0.10166599 -0.07531818
-0.00051776157 -0.083598755 0.062536515 0.036316097 -0.065979905 -0.00842163 0.09455441 -0.034833428
-0.053970803 0.02420178 0.020907983 -0.023800462 -0.06882918 0.087782055 0.016780708 -0.05461975
0.04663606 0.013218738 0.10157048 -0.053645823 0.07507211 0.097366035 -0.078318335 0.007880367
-0.034736257 0.06925662 -0.068913214 -0.08120209 0.100973524 0.10588384 0.055244714 -0.045700926
0.029227898 -0.10135735 -0.03523007 0.047920626 -0.068827756 -0.06412615 -0.03901476 0.03527433
0.055864204 -0.058944438 -0.078173034 -0.047994003 -0.086756974 -0.00936009 0.076630235 0.11339669
-0.10289683 0.0901656 0.077830896 -0.11000511 0.08120036 -0.041179754 0.039932095 0.09969984
-0.01325804 0.033933967 -0.018494898 0.048696302 -0.04579081 0.077549666 -0.019061597 0.027483303
-0.06489179 -0.06628163 -0.09469038 0.05895622 -0.06405389 -0.0750196 0.08731057 0.038774673
0.04877375 0.024089694 -0.05546234 -0.06991475 0.046989363 -0.0217354 0.07048908 0.03363029
-0.06282625 0.07463242 -0.0029571045 0.028907951 -0.026785303 -0.049334906 0.082563385 0.006207619
0.0788714 -0.07893543 -0.013594575 0.015643552 -0.1022017 -0.07272993 0.07897058 -0.025724612
-0.08545498 0.029882755 -0.0058951913 -0.01146143 -0.025977457 0.016127776 -7.9246165e-05 0.040549647
-0.09001303 -0.067227855 -0.07720564 -0.023456573 -0.035797372 -0.06926502 -0.0153276995 -0.06437563
0.09590526 0.10589546 -0.082386084 0.004709192 -0.028140042 0.08333109 0.01011749 0.101578936
-0.09549776 0.02806677 0.08646402 -0.09934804 0.103028126 0.057805017 -0.08358826 0.060778808
0.07762554 0.073445976 -0.005126275 0.0031400397 0.03189491 0.03413543 -0.09715388 0.06232009
0.049332783 -0.08429081 -0.024312392 -0.036943257 0.085298076 -0.079135574 0.08534476 -0.09544239
-0.07562982 -0.09822304 0.06276276 -0.06398931 0.0509232 0.09674157 0.030120179 0.10194839
0.025924027 0.063570455 -0.060725708 0.09904191 -0.09912768 0.08951457 0.0066909334 0.027448691
0.052368674 -0.01206135 0.111509204 0.073835224 0.0722506 0.07109724 -0.06926438 0.04335955
0.0070896186 0.0554098 0.018399194 0.09367375 -0.1035967 -0.06247375 0.061522536 0.052620403
00000000: 43aa de3d 8c87 94bd f699 cebd e486 b03d
00000010: a97b 89bd a063 e0bd 586c 05bd 14fd a1bd
00000020: 9a46 d2bb f891 8c3d 1a10 90bd 3a01 46bd
00000030: f235 d33d 3095 d03b 3e5e 623d 86f4 4aba
00000040: e2ad 11bd fdad b83b 7943 e13d ba31 6e3d
00000050: 48f3 d93d 3fb6 3f3d c0c8 78bd 2cf2 9cbd
00000060: 778c ba3d 4ab4 d83c 9e10 b63d 40b7 9bbc
00000070: c772 c13d 0d05 2a3c 702b 17bc ed4e da3d
00000080: 8013 f4bc e628 b93d 5728 98ba 3f18 55bd
00000090: 7e5c df3d 6857 543d f916 32bd 54ba cf3c
000000a0: d521 273d e215 acbd 24e2 0a3d 301e 083d
000000b0: 3e52 64bc a0ad 3d3d c4ec e43d 9c10 c93d
000000c0: ffd0 18bd af67 ecbb b0b3 c4bb 8051 873a
000000d0: 3593 6a3d 96cc c53d aa77 193d 52bb 89bd
000000e0: 32f1 2cbd 2fc3 97bd bd04 97ba 42a9 1b3d
000000f0: e713 483d 28c6 54bd 342b c0bd cbe3 293d
00000100: f156 11bd e3ea 5f3d bd30 15bd 5edc 53bd
00000110: 2576 f43c 680c dfbc ca55 1abd 5f51 3bbd
00000120: 5004 113d 803a e03c 70d1 6d3d c63e b93d
00000130: bbce 543d d661 9b3d 4236 d03d 6b40 9abd
00000140: 64ba 07ba d335 abbd 2513 803d 30c0 143d
00000150: 7920 87bd e0fa 09bc bea5 c13d 7fad 0ebd
00000160: 7d10 5dbd d042 c63c 3847 ab3c 30f9 c2bc
00000170: 50f6 8cbd 14c7 b33d b277 893c f5b8 5fbd
00000180: 7405 3f3d 6893 583c 2f04 d03d b9bb 5bbd
00000190: 68bf 993d d867 c73d 5d65 a0bd a81c 013c
000001a0: 9b47 0ebd 6ad6 8d3d 5f22 8dbd 484d a6bd
000001b0: 35cb ce3d a0d9 d83d 4848 623d e530 3bbd
000001c0: 586f ef3c 7194 cfbd 684d 10bd 6b48 443d
000001d0: 91f5 8cbd 9254 83bd f1cd 1fbd d17b 103d
000001e0: ddd1 643d b96f 71bd 2f19 a0bd 5c95 44bd
000001f0: a4ad b1bd 105b 19bc 50f0 9c3d 863c e83d
00000200: 93bb d2bd bea8 b83d ce65 9f3d 5c4a e1bd
00000210: 604c a63d 1aac 28bd d68f 233d 6e2f cc3d
00000220: 4038 59bc 58fe 0a3d 9d82 97bc c675 473d
00000230: 258f 3bbd 5cd2 9e3d 1127 9cbc aa24 e13c
00000240: fde5 84bd aabe 87bd 08ed c1bd 147c 713d
00000250: b02e 83bd e0a3 99bd e2cf b23d 31d2 1e3d
00000260: fcc6 473d c057 c53c 7b2c 63bd 772f 8fbd
00000270: eb77 403d 700e b2bc 945c 903d eabf 093d
00000280: 0dab 80bd e2d8 983d fbcb 41bb 5ed0 ec3c
00000290: da6c dbbc 6613 4abd fe16 a93d 4869 cb3b
000002a0: 5487 a13d e6a8 a1bd c8bb 5ebc e826 803c
000002b0: 204f d1bd 6ef3 94bd 54bb a13d 6cbc d2bc
000002c0: 0503 afbd aecc f43c 732c c1bb b9c8 3bbc
000002d0: adce d4bc 661e 843c f630 a6b8 6317 263d
000002e0: c058 b8bd c2ae 89bd fe1d 9ebd 0028 c0bc
000002f0: 44a0 12bd d2da 8dbd 0821 7bbc 5fd7 83bd
00000300: fa69 c43d b8df d83d 09ba a8bd 914f 9a3b
00000310: f285 e6bc 7ea9 aa3d d4c3 253c 9e08 d03d
00000320: 5494 c3bd 48ec e53c 0c14 b13d fc76 cbbd
00000330: 6900 d33d f4c4 6c3d 5230 abbd 33f3 783d
00000340: 24fa 9e3d d86a 963d 50fa a7bb 20c9 4d3b
00000350: 3da4 023d 98d1 0b3d 9df8 c6bd 5a43 7f3d
00000360: 2c11 4a3d a9a0 acbd c82a c7bc d051 17bd
00000370: c2b0 ae3d d511 a2bd 3cc9 ae3d 4d77 c3bd
00000380: cfe3 9abd 2929 c9bd c389 803d d40c 83bd
00000390: d894 503d 7220 c63d 98be f63c 51ca d03d
000003a0: a05e d43c 3a31 823d 85bb 78bd 7cd6 ca3d
000003b0: 7403 cbbd 6a53 b73d 9e3f db3b 14dc e03c
000003c0: 8980 563d f89c 45bc f05e e43d ec36 973d
000003d0: 1ff8 933d 6e9b 913d 7cda 8dbd c999 313d
000003e0: 0850 e83b 63f5 623d e8b9 963c 06d8 bf3d
000003f0: 822a d4bd 7ae4 7fbd 0eff 7b3d 7e88 573d
